espcn_x4_trained.pth (torch, 151965 bytes, 6 tensors)

conv1.weight f4 [64, 3, 5, 5]
0	0xbcf33c3b	-0.029691806
1	0x3da992df	0.082799666
2	0x3c1bdbb1	0.009512828
3	0x3b5fcd3c	0.0034149429
4	0x3d81ce62	0.063381925
5	0xbd9fb1be	-0.077975735
6	0xbd36b7ee	-0.044609003
7	0xbdb16f44	-0.086638
8	0xbe17c60d	-0.14821644
9	0x3d8999ee	0.06718813
10	0xbdaddac3	-0.08488991
11	0xbdeddcab	-0.11614355
12	0xbc36ee65	-0.011165236
13	0x3d574ffa	0.052566506
14	0xbd20c197	-0.03924712
15	0xbd1300e6	-0.03588953
16	0x3dafa610	0.08576596
17	0x3c8abe93	0.016936576
18	0x3da32b1e	0.07967208
19	0x3d24fc4b	0.040279668
20	0x3d72896d	0.05921309
21	0xbd9c02d9	-0.07617731
22	0xbc9d44d6	-0.019197863
23	0x3dd75b95	0.10515515
24	0xbd8fc1d6	-0.07019393
25	0xbd00fa89	-0.03148893
26	0x3d335c0f	0.043788966
27	0xbda25eb6	-0.07928221
28	0xbd41958c	-0.04726176
29	0xbda8d2a2	-0.082433
30	0xbc55006d	-0.01300059
31	0xbdbe9973	-0.09306612
32	0xbc82a3e0	-0.015947282
33	0xbd4f6125	-0.050629754
34	0x3d55f09d	0.05223142
35	0xbd5029eb	-0.050821226
36	0x3daffea9	0.085934944
37	0x3dfa6d69	0.122278996
38	0x3c820bb7	0.015874727
39	0xbc3c1105	-0.011478667
40	0x3d7f80c1	0.06237865
41	0xbcd972d1	-0.026544007
42	0xbcaa4edc	-0.020789556
43	0xbd705f65	-0.058684725
44	0xbda1f200	-0.07907486
45	0x3d081772	0.033225484
46	0x3d700f85	0.05860855
47	0x3c208456	0.009797176
48	0xbd04e4b3	-0.032444667
49	0xbdd8d1e0	-0.105869055
50	0xbd4ca849	-0.049965177
51	0xbd183338	-0.03715822
52	0x3d681d89	0.056668792
53	0xbd9879f2	-0.07445134
54	0x3da18b42	0.078878894
55	0xbcc1cede	-0.023658212
56	0xbdc348a6	-0.09535341
57	0xbd88ad28	-0.06673652
58	0xbe352212	-0.17688778
59	0xbd968e5a	-0.0735137
60	0x3d00c7c2	0.031440504
61	0x3d8ec8d9	0.069719024
62	0xbcbb2e78	-0.022849306
63	0xbd3d74e6	-0.04625406
64	0xbcf50ad6	-0.029912394
65	0x3d866b49	0.06563432
66	0x3df35b4d	0.118826486
67	0x3ded2baa	0.11580594
68	0xbc3aa5ac	-0.011392038
69	0x3dd038c0	0.10167074
70	0x3c4bca6b	0.012438397
71	0x3d5879f0	0.052850664
72	0xbda240df	-0.079225294
73	0xbd90db35	-0.070730604
74	0x3dba6d96	0.09102933
75	0x3cd941f6	0.02652071
76	0x3d0945fd	0.03351401
77	0xbdc05151	-0.0939051
78	0xbdd76ac8	-0.10518414
79	0x3db143f0	0.08655536
80	0x3d309e0e	0.043119483
81	0x3dc70312	0.097173825
82	0x3c2550f6	0.010090103
83	0x3d909147	0.070589595
84	0x3da1f7f9	0.07908625
85	0xbd461d23	-0.04836763
86	0x3da1378e	0.07871924
87	0xbcc38434	-0.02386675
88	0xbd8b6dda	-0.06808062
89	0x3dac4125	0.08410863
90	0x3de47193	0.11154475
91	0xbd376813	-0.044776987
92	0x3c68fa76	0.014219871
93	0xbdacce92	-0.08437838
94	0xbdaf0651	-0.08546127
95	0x3cdc7743	0.026912337
96	0x3c4146e5	0.011796688
97	0x3c5f8e68	0.013644792
98	0xbd021499	-0.031757925
99	0xbd097ea0	-0.033568025
100	0xbd0f4bb1	-0.034984294
101	0xbd9968a8	-0.07490665
102	0xbc82fd5d	-0.015989954
103	0x3da8f5d5	0.08250014
104	0x3da7322e	0.08163868
105	0x3d8c1b93	0.06841197
106	0x3df4a734	0.11945954
107	0xbb843afb	-0.0040353513
108	0xbdce20b5	-0.10064832
109	0xbce0b63f	-0.027430652
110	0x3d989a6c	0.07451329
111	0x3d90b65b	0.070660315
112	0xbdb1b54f	-0.0867716
113	0x3d760a05	0.06006815
114	0x3d68b32e	0.056811504
115	0xbdd8fb17	-0.105947666
116	0x3da46718	0.08027476
117	0xbd05df9a	-0.032683946
118	0xbd7fcb25	-0.062449593
119	0x3cd1d6f0	0.025615185
120	0x3d97ec23	0.074180864
121	0x3b1cf18c	0.0023947684
122	0x3de93181	0.11386395
123	0xbd30fce9	-0.043209944
124	0xbc047315	-0.008084078
125	0x3b38d5b8	0.0028203558
126	0x3c4536ff	0.012037038
127	0x3d846a6b	0.0646561
128	0x3de1dd60	0.11028552
129	0x3d2051f6	0.039140664
130	0x3d453291	0.048143927
131	0x3d655d9e	0.055997483
132	0x3d0256b9	0.031820986
133	0xbda872e0	-0.08225036
134	0xbddd620c	-0.108097166
135	0x3dc217f5	0.09477226
136	0xbcef0c94	-0.029180802
137	0x3d880886	0.06642251
138	0x3d977361	0.07395054
139	0xbd31adef	-0.043378767
140	0xbd9fe336	-0.07807009
141	0x3dd9f789	0.10642917
142	0x3c7d859f	0.015473752
143	0xbd89fb3a	-0.06737371
144	0x3da528bd	0.08064411
145	0x3dc4d086	0.09610085
146	0xbdcce193	-0.10003962
147	0x3d85e0f1	0.06537045
148	0x3ddfc367	0.10925942
149	0x3d19f2cf	0.037585076
150	0xbd0584e1	-0.032597426
151	0x3cf2e61b	0.029650738
152	0x3c95797c	0.018246405
153	0x3d9c447e	0.07630251
154	0xbdc5c92e	-0.096575126
155	0xbdd35692	-0.10319246
156	0xbde42136	-0.11139147
157	0x3dbbe923	0.09175327
158	0x3d28fe7a	0.041258313
159	0xbd1d2f4a	-0.038375176
160	0xbdc2e17b	-0.09515663
161	0x3dd74a98	0.105122745
162	0xbd2fa825	-0.042884964
163	0x3d3d09d1	0.04615194
164	0xbde7eeab	-0.11324819
165	0xbcf34b4c	-0.02969899
166	0x3da82325	0.08209828
167	0x3ca8291c	0.020527415
168	0x3c8e6ca0	0.01738578
169	0x3bff5780	0.0077924132
170	0xba92cfa1	-0.0011200794
171	0x3c438d24	0.011935506
172	0xbca09785	-0.0196035
173	0xbd6c507d	-0.057693947
174	0x3d7de3f2	0.061984964
175	0x3dd95888	0.10612589
176	0xbdcedf56	-0.10101192
177	0x3d3b8d22	0.04578889
178	0xbdd86c87	-0.10567575
179	0xbbdf3ef7	-0.006812926
180	0x3c8bf5c5	0.017084965
181	0x3ba719b8	0.0050995015
182	0x3ddb1c75	0.10698787
183	0xbdcfcf5f	-0.10146975
184	0x3a5e506e	0.0008480613
185	0xbd03441a	-0.03204737
186	0x3df66dba	0.120326474
187	0x3e0659d4	0.13120204
188	0x3d46a71b	0.048499208
189	0xbd555d28	-0.052090794
190	0x392a7ae3	0.00016258242
191	0x3a2ef2e0	0.00066737644
192	0x3baea820	0.0053301007
193	0x3db0f827	0.08641081
194	0xbcbb83df	-0.02289003
195	0x3db3bee6	0.08776645
196	0x3d96504f	0.073395364
197	0xbda494c2	-0.08036186
198	0x3ca96d29	0.020681934
199	0xbda089d7	-0.07838791
200	0xbdc9931f	-0.09842514
201	0x3dbaf03f	0.091278546
202	0xbd8ba8ab	-0.0681928
203	0xbd5ca9a3	-0.053872716
204	0x3d3a9d79	0.045560334
205	0xbd2d3319	-0.04228506
206	0xbd0c4e6c	-0.034254476
207	0x3db53109	0.08847243
208	0xbdf18544	-0.117929965
209	0xbc220517	-0.009888909
210	0x3d873c4c	0.066032976
211	0x3dea41c7	0.11438327
212	0x3def52bc	0.11685702
213	0x3de87b5f	0.11351656
214	0x3db79d3a	0.089655355
215	0xbc56adc9	-0.013102957
216	0x3bd009f8	0.0063488446
217	0x3bf7c42b	0.007561227
218	0xbcaa600f	-0.020797757
219	0x3d98a4e6	0.07453327
220	0xbdaf99c0	-0.08574247
221	0xbddae549	-0.10688264
222	0x3d1f7749	0.03893212
223	0x3d5aee0a	0.053449668
224	0x3b0aae2c	0.0021160943
225	0xbd913406	-0.07090001
226	0x3d0cc70b	0.03436951
227	0x3ca6bba5	0.020353148
228	0x3dc94453	0.09827485
229	0xbb9d11ed	-0.0047933967
230	0x3c4f111b	0.012638356
231	0xbd10f20c	-0.035387084
232	0xbda1e923	-0.079057954
233	0x3dcc5f5b	0.09979125
234	0x3db3ccfd	0.08779333
235	0xbd5a1f3a	-0.053252436
236	0xbd8606e6	-0.065442845
237	0xbd4a7591	-0.049428526
238	0xbc6faae9	-0.0146281505
239	0x3d8fe363	0.070257924
240	0x3de008fe	0.10939215
241	0x3d42003e	0.047363512
242	0x3d264349	0.040591512
243	0x3dc1bde7	0.09460049
244	0x3db271d3	0.087131165
245	0x3d2fc5f5	0.042913396
246	0xbdb85b86	-0.09001832
247	0x3dc44f04	0.095853835
248	0xbc4ca9d8	-0.012491666
249	0xbcfb273b	-0.030658355
250	0xbda0f14a	-0.07858522
251	0x3dda332a	0.1065429
252	0x3da6022a	0.081058815
253	0xb9df945b	-0.00042644408
254	0x3c195eb8	0.009360962
255	0xbba50ba6	-0.005036789

conv1.bias f4 [64]
0	0x3d727b91	0.059199873
1	0xbdcb6a12	-0.09932341
2	0x3dd7af3e	0.10531472
3	0xbdb5352c	-0.08848032
4	0x3cfce544	0.030871041
5	0xbbea133c	-0.007143406
6	0x3d894ce3	0.06704118
7	0xbde0ad7a	-0.10970588
8	0x3d286117	0.041108217
9	0x3ddb0174	0.106936365
10	0x3d8cfeae	0.06884514
11	0xbc12fe16	-0.008971712
12	0x3dbe776e	0.09300123
13	0x3d822355	0.06354395
14	0x3d5654a8	0.05232683
15	0x3c604a4f	0.013689592
16	0x3d93e848	0.072220385
17	0x3d8130b3	0.06308117
18	0xbda93a9d	-0.08263133
19	0x3d61453e	0.054997675
20	0x3cd10ef7	0.025519831
21	0xbd9dd04e	-0.077057466
22	0x3cdfe68f	0.027331619
23	0xbdccfd8c	-0.10009298
24	0x3da85b95	0.08220593
25	0x3deacfd8	0.11465424
26	0xbd001ea1	-0.03127921
27	0x3d718130	0.058961093
28	0xbdc35bfa	-0.095390275
29	0x3dbb326f	0.09140479
30	0x3d96a4ac	0.073556274
31	0x3d5b77b6	0.053580962
32	0xbcab2456	-0.02089135
33	0x3de293fd	0.11063383
34	0xbd986052	-0.07440247
35	0xbd998e67	-0.07497864
36	0x3dad6e91	0.084683545
37	0x3dde7017	0.10861223
38	0x3d6937d4	0.056938007
39	0x3c854869	0.01626988
40	0x3c97d0c7	0.01853217
41	0x3dbfd47e	0.093667015
42	0xbc93a40d	-0.018022561
43	0xbdb1aacf	-0.08675157
44	0xbc70930a	-0.014683494
45	0x3d8a2048	0.067444384
46	0x3e0dc757	0.13845573
47	0x3d948a70	0.07252967
48	0x3d39533a	0.045245387
49	0x3c999e75	0.018752316
50	0x3d784bee	0.060619287
51	0x3ce01ea2	0.027358357
52	0xbd6a2291	-0.05716187
53	0x3cfc54a4	0.030802079
54	0xbc5ac44b	-0.013352464
55	0x3c856212	0.016282115
56	0x3ceb1be0	0.028699815
57	0x3c06cffd	0.008228299
58	0x3cd6d2ae	0.026223507
59	0xbc381f1f	-0.011237889
60	0xbdd2afdb	-0.10287448
61	0xbd90d8f6	-0.07072632
62	0xbd9833e9	-0.07431776
63	0xbd89f91b	-0.06736966

conv2.weight f4 [32, 64, 3, 3]
0	0xbca3ec96	-0.020010274
1	0x3ca2a660	0.019854724
2	0x3cfc0b9f	0.03076726
3	0x3c55ed53	0.013057071
4	0x3c63f290	0.013912812
5	0x3b8614ce	0.0040918356
6	0x3c5dfb8c	0.013548743
7	0x3c320828	0.010866202
8	0xbc2f7f73	-0.010711539
9	0xbd340be4	-0.043956652
10	0xbd3016a0	-0.042990327
11	0x3c6310e6	0.013859009
12	0x3cecd652	0.02891079
13	0x3c3baf5a	0.011455381
14	0x3cbb2f5b	0.02284973
15	0x3cd9386b	0.02651616
16	0xbb577cce	-0.0032880786
17	0xbc081190	-0.0083049685
18	0xbc39aaf2	-0.01133226
19	0x3cdfb649	0.0273086
20	0x3be7f45b	0.00707869
21	0x3ce022d8	0.027360365
22	0xbbb847c1	-0.005623788
23	0xbd0f8658	-0.03504023
24	0xbc2945c4	-0.010331575
25	0xba4c6256	-0.00077966356
26	0x3cc76c4c	0.024343632
27	0xbc374e39	-0.011188083
28	0x3ccd2fe0	0.025047243
29	0xbcf7ec63	-0.030264085
30	0xbbf35ad0	-0.007426597
31	0xbc6d0c98	-0.014468335
32	0xbc00b90a	-0.007856617
33	0x3c03a95d	0.008035985
34	0x3d0c0b2f	0.034190353
35	0x3cabbaf1	0.020963164
36	0x3cca0ae4	0.024663396
37	0xbcdefc4b	-0.027219912
38	0x3c9ee3e0	0.019395769
39	0x3b1a46fe	0.002354085
40	0x3ab89abb	0.0014084199
41	0xbbdcadc6	-0.0067345826
42	0xbc582f0a	-0.013194809
43	0x3c56f005	0.013118749
44	0xbcfc0e8e	-0.030768659
45	0x3cd380c4	0.025818236
46	0x3cd6ed7f	0.026236294
47	0xbd1cdba5	-0.038295407
48	0xbd07aa03	-0.03312112
49	0x3cddf378	0.027093634
50	0xbd306242	-0.043062456
51	0x3ca99985	0.020703087
52	0xbcb92e3e	-0.022605058
53	0xbccc5895	-0.024944583
54	0xbd281cc0	-0.041043043
55	0x3d088194	0.0333267
56	0xbbd7a50a	-0.0065809535
57	0xbcba2451	-0.022722395
58	0xbcc9d3a3	-0.024637049
59	0xb9a60f9a	-0.0003167361
60	0x3b996a32	0.004681849
61	0x3d012611	0.031530444
62	0x3c27de80	0.010245919
63	0x3c4d0637	0.012513689
64	0xbd0793bb	-0.03309987
65	0x3cc8a32f	0.024491875
66	0xbcd27384	-0.025689848
67	0x3c9905ac	0.018679462
68	0x3bc00ab9	0.0058606532
69	0xbca65507	-0.020304216
70	0xbcbc2f49	-0.022971766
71	0xbca31165	-0.019905755
72	0xbbe569ac	-0.0070011225
73	0xbce8dcf0	-0.028425664
74	0x399db2aa	0.0003007849
75	0x3ccae149	0.024765627
76	0xbbf9aa66	-0.00761919
77	0x3bc46f0d	0.0059946836
78	0xbcfd58af	-0.030926077
79	0x3c8b3c83	0.016996628
80	0x3c73e651	0.014886455
81	0xbd4204bb	-0.047367793
82	0x3cdeb88c	0.027187608
83	0x3be92dcd	0.0071160556
84	0xbbee10cf	-0.0072651873
85	0x3cc2b021	0.023765625
86	0xbc859bd8	-0.016309664
87	0xbc6a3ea6	-0.014297163
88	0x3c045e89	0.00807918
89	0xbd2abc20	-0.041683316
90	0x3c476f25	0.012172495
91	0xbaf115b8	-0.0018393314
92	0xbd24786b	-0.040153902
93	0x3c7edc9e	0.015555529
94	0xb886dff4	-6.4313324e-05
95	0xbc8d2980	-0.017231703
96	0x3a911592	0.001106905
97	0x3c40d0b3	0.011768508
98	0xbc526a92	-0.012842791
99	0x3cb85cae	0.02250513
100	0xbc8c4b38	-0.01712571
101	0xbd2ffc22	-0.042965062
102	0x3d02aa1f	0.03190052
103	0xbc7945d3	-0.015214401
104	0xbc759627	-0.014989412
105	0xbd45c0b7	-0.04827949
106	0x3cfac5f6	0.030611973
107	0xbd1a460a	-0.03766445
108	0xbc366e9c	-0.01113477
109	0xbcfc5ecd	-0.030806923
110	0xbb2bac65	-0.0026195284
111	0xbc904706	-0.017611992
112	0xbc2a57e0	-0.010396928
113	0xba039934	-0.00050200825
114	0xbcf26ff1	-0.029594393
115	0x3c666a17	0.01406338
116	0x3b90227c	0.004398642
117	0xbc81c8d1	-0.015842827
118	0xbd16f517	-0.03685483
119	0xbcf77376	-0.030206423
120	0xbcd03141	-0.025414111
121	0xbc968ec4	-0.018378623
122	0xbcd1ad89	-0.025595443
123	0x3c432655	0.011910995
124	0xbd148134	-0.03625603
125	0xbd2e4a3b	-0.04255126
126	0xbd31dbb9	-0.043422434
127	0x3c66f2cf	0.014095976
128	0x3c88f773	0.016719555
129	0xbc2dd6b8	-0.010610275
130	0xbc275382	-0.010212781
131	0x3a7c9515	0.0009635252
132	0xbc6c7faf	-0.014434739
133	0xbca40bcb	-0.020025155
134	0xbc6b6c2e	-0.014369054
135	0xbd41b33c	-0.04729007
136	0x3d044358	0.032290787
137	0xbcdba3c9	-0.026811497
138	0x3cd27138	0.025688753
139	0x3c260ed7	0.010135374
140	0x3cbd22ef	0.023087947
141	0x3c4d6dad	0.012538356
142	0x3c1fc750	0.00975211
143	0xbc02f410	-0.007992759
144	0x3c36d6fa	0.011159653
145	0xb9ee94dd	-0.0004550581
146	0x3cd76779	0.026294457
147	0xbb829d2f	-0.003986023
148	0x3c850d6e	0.016241755
149	0xbc910757	-0.017703695
150	0x3d049240	0.032366037
151	0x3c48a40d	0.012246144
152	0x3b0fc2fe	0.0021936293
153	0xbd0c96d8	-0.034323543
154	0xbd013b6e	-0.031550817
155	0x3b860bde	0.00409077
156	0xbd36cd24	-0.04462923
157	0xbd22207b	-0.039581757
158	0xbd32f076	-0.043686353
159	0xbcab310f	-0.020897416
160	0xbd0001d8	-0.03125176
161	0xbaa8e5f1	-0.0012885911
162	0xbcbc8335	-0.023011783
163	0xbcb88186	-0.0225227
164	0xbcc0808b	-0.023498794
165	0xbd1db4e2	-0.03850258
166	0x3c3745c2	0.011186065
167	0xbcc45c79	-0.023969876
168	0xbc1f5b33	-0.009726333
169	0xbd1417a9	-0.036155377
170	0xbd04ddc3	-0.03243805
171	0x3ccd6351	0.025071772
172	0xbd410a2e	-0.04712885
173	0x3cbfbe88	0.023406282
174	0xbd4a8146	-0.04943969
175	0xbb1b56aa	-0.002370278
176	0xbd17c036	-0.03704854
177	0xbcf5972f	-0.029979317
178	0xbd0c5eff	-0.034270283
179	0x3c3f1dae	0.011664791
180	0xbb9b535f	-0.004740163
181	0xbcd91ceb	-0.026503047
182	0x3ba14cc2	0.0049224803
183	0xbc3c1ccb	-0.011481474
184	0x3c187e90	0.009307519
185	0xbcb929c3	-0.022602921
186	0x3d0809f0	0.033212602
187	0x3c5a4775	0.013322701
188	0xbb7d0a29	-0.0038610792
189	0xbcfbdcaf	-0.030744879
190	0xbbd16de2	-0.006391273
191	0x3c6380a0	0.013885647
192	0xbbfce6a1	-0.007717923
193	0xbcc16dfa	-0.023612011
194	0xbcc2f010	-0.023796111
195	0xba15a99c	-0.00057091727
196	0x3d0d8af7	0.034556355
197	0x3cb3992c	0.021923624
198	0xbcaa413e	-0.020783063
199	0xbc6d649b	-0.014489318
200	0x3c0dc72c	0.008653443
201	0xbd056ee4	-0.032576457
202	0xbd2bc19f	-0.0419327
203	0xbce7d1d2	-0.028298292
204	0x3ce8ccd5	0.028417984
205	0xbc86ee08	-0.016470924
206	0xbc8df184	-0.017327078
207	0x3cdf928a	0.027291555
208	0x3c26f0cc	0.010189246
209	0x3cdf03a6	0.02722342
210	0x3ce8d795	0.02842311
211	0xbbdc31f4	-0.006719822
212	0x3cbe4af5	0.023229102
213	0x3c7da1cb	0.015480469
214	0x39c1a2b2	0.00036933046
215	0x3c2cbb35	0.0105426805
216	0xbc32d8f5	-0.010915984
217	0x3ce33340	0.027734399
218	0xbd0bbae7	-0.03411379
219	0xbd33d0f5	-0.04390045
220	0xbd391a6b	-0.04519121
221	0xbd3b2503	-0.045689594
222	0x3c658b7d	0.014010307
223	0xbd3ce029	-0.046112213
224	0xbd48e7c7	-0.049049165
225	0xbc3cc94b	-0.011522601
226	0xbc96d10d	-0.01841023
227	0x3ca6d10b	0.020363351
228	0x3c69c7c8	0.014268823
229	0xbce63720	-0.028102458
230	0x3b071ad2	0.0020615351
231	0x3c5b1600	0.013371944
232	0xbd0cef64	-0.03440799
233	0x3cd0bfff	0.025482176
234	0xbd0075a3	-0.031362187
235	0xbd3ae583	-0.045629036
236	0x3c2799f7	0.010229579
237	0x3cc1bf6d	0.02365085
238	0xbc4fb88b	-0.012678276
239	0x3c65b6a9	0.0140206
240	0x3c48d514	0.012257833
241	0x3cbb3230	0.02285108
242	0xbc1cd3fe	-0.009572027
243	0x3c2c054a	0.010499308
244	0x3c55c226	0.013046777
245	0xbc94552c	-0.01810702
246	0xbced5805	-0.028972635
247	0xbc653f7c	-0.013992187
248	0x3c0981c8	0.008392759
249	0xbb098841	-0.0020985755
250	0x3ce56599	0.028002547
251	0xbd3fc0b0	-0.04681462
252	0xbcd82f09	-0.026389616
253	0xbd3c594d	-0.0459836
254	0xbd2e9fb2	-0.042632766
255	0x3c8846c8	0.016635314

conv2.bias f4 [32]
0	0x3cc19f85	0.023635635
1	0xbc0cff27	-0.008605755
2	0x3c8cf610	0.017207175
3	0xbc4de0b9	-0.012565785
4	0xbcc6aae3	-0.024251407
5	0x3cf097bb	0.029369226
6	0xbcef6636	-0.029223543
7	0xbc28ee4b	-0.01031072
8	0x3d201475	0.03908201
9	0xbcdc255b	-0.026873281
10	0xbbbf643a	-0.0058408054
11	0xbc29a6a8	-0.010354675
12	0x3be5a228	0.007007856
13	0xbb8a0886	-0.004212442
14	0xba9df229	-0.0012050319
15	0x3ca8b0c6	0.020592105
16	0xbce4d227	-0.02793224
17	0xbce314c9	-0.027719872
18	0xbc08e6c6	-0.008355802
19	0x3c8ec5a5	0.017428229
20	0xbcca303f	-0.024681209
21	0x3c66e118	0.0140917525
22	0x3cc32c5f	0.023824869
23	0x38ea0668	0.00011159183
24	0xbc009606	-0.007848268
25	0xbcc69a05	-0.024243364
26	0x3b8ab748	0.0042332746
27	0xbbfca135	-0.007709647
28	0xbb342773	-0.0027489334
29	0xbcffb742	-0.031215314
30	0xbcaa25b5	-0.020769933
31	0x3d15ba69	0.036554728

conv3.weight f4 [48, 32, 3, 3]
0	0x3c85c8c7	0.01633109
1	0x3c1a7517	0.00942733
2	0xbcd17784	-0.025569685
3	0x3cb063d4	0.021531977
4	0x3cee2f98	0.029075429
5	0xbcdffc9b	-0.027342131
6	0x3c8f2f0a	0.017478485
7	0xbc823607	-0.015894903
8	0x3bc7c7de	0.006096824
9	0x3c412641	0.011788906
10	0xbd4d8d3a	-0.050183512
11	0xbd4cadc9	-0.049970422
12	0xbcce7b6d	-0.025205338
13	0xbc85adb3	-0.016318178
14	0x3c912cb5	0.017721513
15	0xbd4d90a0	-0.050186753
16	0x3d37147f	0.04469728
17	0x3c35f8c1	0.011106671
18	0x3cbfe567	0.023424817
19	0xbba1b835	-0.0049352893
20	0x3c5a48ee	0.013323052
21	0x3d200a85	0.039072532
22	0xbcc753be	-0.024331924
23	0xbc9d2544	-0.019182809
24	0xbce5a552	-0.028032932
25	0x3d2aaf1e	0.04167091
26	0x3cff2670	0.031146258
27	0xbc2d4780	-0.010576129
28	0xbc180b7d	-0.009280083
29	0x3d81b2f7	0.06332963
30	0x3ba14b40	0.0049223006
31	0x3d3bf81a	0.045890905
32	0x3d6a5c08	0.057216674
33	0x3d4d463b	0.050115805
34	0x3d75b209	0.05998424
35	0x3d30c262	0.043154128
36	0x3cee7200	0.029107094
37	0x3ca3beb7	0.0199884
38	0x3bb550a3	0.0055332943
39	0xbc2c2ad0	-0.010508254
40	0x3cf8fcd1	0.03039399
41	0x3cf06d1b	0.0293489
42	0xbca0df76	-0.019637804
43	0x3cf23222	0.02956492
44	0xbd60eb22	-0.05491174
45	0x3d701309	0.058611903
46	0x3d336ba7	0.043803837
47	0x3ca59d9f	0.020216761
48	0xbc985c12	-0.01859859
49	0x3c5c7620	0.013455898
50	0x3c5de0ca	0.013542363
51	0xbd16cf56	-0.036818825
52	0x3ce846c9	0.028354065
53	0x3ca46f05	0.02007247
54	0xbd4fe4bd	-0.05075525
55	0x3d510fe3	0.05104054
56	0x3ad58f70	0.0016293358
57	0x3d3b62ba	0.04574845
58	0xbd245871	-0.040123407
59	0x3bb1167b	0.005404291
60	0xbd24b3a9	-0.0402104
61	0x3d6bcc3b	0.057567816
62	0xbc69fcd0	-0.014281467
63	0x3d8b85ac	0.06812605
64	0x3be9b1af	0.0071317772
65	0x384d20f9	4.8906517e-05
66	0xbbcfb0e8	-0.0063382275
67	0x3d7bc7b8	0.061469764
68	0x3c9d7570	0.019221038
69	0x3c5f1a7b	0.013617153
70	0xbd2efc35	-0.042720992
71	0xbd3a56c7	-0.045492914
72	0xbca21b7c	-0.019788496
73	0x3c179fb1	0.009254382
74	0x3d81a268	0.06329805
75	0xbd7ca79b	-0.06168328
76	0x3c2ba830	0.010477111
77	0xbcc599cb	-0.024121186
78	0x3d269e63	0.040678393
79	0xbbfd3241	-0.007726938
80	0xbd0f6943	-0.035012495
81	0x3c5b762d	0.0133948745
82	0xbd096e88	-0.033552676
83	0x3b2518ee	0.0025191861
84	0x3d2a9c2c	0.041652843
85	0xbc3ea161	-0.011635155
86	0x3d4ffc6e	0.050777845
87	0x3cd44ff7	0.025917036
88	0x3b4acf23	0.0030946217
89	0x3d00605d	0.0313419
90	0x3ce17fbb	0.027526727
91	0x3ce7c92f	0.028294174
92	0x3d21f757	0.039542522
93	0x3d36607d	0.044525612
94	0xbd50873d	-0.050910223
95	0x3bf571c9	0.007490371
96	0xbd47b9e2	-0.048761256
97	0xbd4a0742	-0.049323328
98	0xbb6eb58b	-0.0036424126
99	0x3ce8c695	0.028415004
100	0x3d8819ea	0.06645568
101	0xbbcd8b64	-0.00627272
102	0x3c6ef1da	0.014584029
103	0x3c363fcc	0.011123609
104	0x3d1331d9	0.03593621
105	0xbd179cda	-0.03701482
106	0x3d7a4407	0.061100032
107	0xbc92938b	-0.01789262
108	0xbcf491a9	-0.029854612
109	0xbc6937c2	-0.014234485
110	0xbce3b432	-0.027795885
111	0xbd4a758c	-0.049428508
112	0xbb5942b9	-0.0033151342
113	0xbd333cfc	-0.04375933
114	0x3b934d2e	0.0044952845
115	0x3c824563	0.015902227
116	0xba82121d	-0.0009923611
117	0x3c1ff202	0.009762289
118	0x3d51aade	0.051188342
119	0xbd20f7d2	-0.03929884
120	0x3d280488	0.041019946
121	0xbd12a706	-0.035803817
122	0x3c0cc7e1	0.008592577
123	0xbc0b72f9	-0.008511298
124	0x3d2ebc8d	0.042660285
125	0x3d0ed4a0	0.034870744
126	0xbd970b18	-0.07375163
127	0x3dc644be	0.0968108
128	0xbcf3ca37	-0.02975951
129	0x3d71a01f	0.058990594
130	0x3e60650e	0.2191355
131	0x3bdca3e9	0.006733407
132	0xbd845c6a	-0.06462939
133	0x3b52b9ca	0.0032154196
134	0xbdc6debb	-0.09710451
135	0x3b4175eb	0.0029519747
136	0x3cee0f2e	0.029059973
137	0x3d8f16ff	0.06986808
138	0x3d32cdc8	0.04365328
139	0x3d70577a	0.058677174
140	0xbccfc242	-0.025361184
141	0x3d65c642	0.056097277
142	0x3cb35c10	0.021894485
143	0x3d7aa839	0.061195586
144	0xbcbd23c6	-0.023088347
145	0xbc1d4196	-0.009598156
146	0x3b7426e1	0.003725462
147	0xbcfb6512	-0.030687843
148	0xbd1c2916	-0.03812512
149	0x3d4523df	0.048129912
150	0x3ce909a3	0.028446978
151	0xbcb0da8d	-0.021588588
152	0x3be9410e	0.007118351
153	0x3d65b79c	0.056083307
154	0x3b913bf3	0.0044321953
155	0xbd19cf03	-0.037550937
156	0x3d5fefad	0.054671932
157	0x3cfb4ee0	0.030677259
158	0xbb765130	-0.0037585013
159	0xbd094570	-0.033513486
160	0x3d1a22b9	0.03763077
161	0x3c5d78b2	0.013517546
162	0xbc859023	-0.016304081
163	0xbcd6605d	-0.026168996
164	0x3c810d60	0.015753448
165	0x3ce4392c	0.027859293
166	0x3cc1db95	0.023664275
167	0xbc794804	-0.015214924
168	0x3d030c16	0.031993948
169	0xbd43c653	-0.04779656
170	0x3cadc3b9	0.021211492
171	0x3d5a2115	0.053254206
172	0xbbdc3a26	-0.006720799
173	0x3c9faa3d	0.019490356
174	0x3bedbe80	0.0072553754
175	0xbcfca083	-0.030838257
176	0xbd457b1a	-0.048213102
177	0xbcbeb435	-0.023279289
178	0xbd0ecdf2	-0.034864374
179	0xbc1e5361	-0.009663434
180	0x3d0ba33b	0.034091216
181	0xbd3253cf	-0.043536957
182	0x3c4b09d2	0.012392478
183	0xbd18333b	-0.037158232
184	0x3d084ace	0.033274464
185	0xbcb2cde4	-0.021826692
186	0x3d0dfb52	0.034663506
187	0x3c8554a1	0.016275706
188	0xbb8eac71	-0.0043540527
189	0x3e00c038	0.12573326
190	0x3b219261	0.00246539
191	0xbc572d00	-0.013133287
192	0xbc782955	-0.015146573
193	0x3cdf46f9	0.027255522
194	0xbc68a794	-0.01420011
195	0xbc67c9ac	-0.014147203
196	0x3c9588d5	0.018253723
197	0x3d40b67c	0.04704903
198	0xbc90e126	-0.017685484
199	0x3cdfc154	0.027313866
200	0x3bc061b3	0.0058710217
201	0x3b9435ea	0.0045230286
202	0x3d047b67	0.03234425
203	0x3b9dd63b	0.004816798
204	0x3cb3dc6f	0.021955697
205	0x3cbf1deb	0.023329696
206	0xbc6b59eb	-0.0143647
207	0xbd92f61e	-0.071758494
208	0xbd137a76	-0.03600546
209	0xbc5df600	-0.0135474205
210	0xbd8a4fe4	-0.06753519
211	0xbd15556d	-0.03645842
212	0xbce8b8d8	-0.028408453
213	0x3cb8326a	0.022484977
214	0xbd779b48	-0.060450822
215	0x3d285f38	0.041106433
216	0x3ce60b81	0.028081657
217	0xbb4fb322	-0.0031692465
218	0xbd19c742	-0.037543543
219	0x3ca7d3f1	0.020486804
220	0xbd13749b	-0.035999876
221	0x3c29eeee	0.010371907
222	0x3d6907bf	0.056892153
223	0x3d544ce3	0.051831137
224	0x3d188a2f	0.037241157
225	0xbc3d02ac	-0.011536282
226	0x3d5451f5	0.051835973
227	0xbd68065b	-0.056646686
228	0xbc051fe9	-0.008125284
229	0x3cd15286	0.025552046
230	0x3d69532b	0.05696408
231	0xbd4ac6a6	-0.049505852
232	0x3ca8a500	0.02058649
233	0xbd28d182	-0.041215427
234	0xbc40304a	-0.011730263
235	0xbc20bcde	-0.009810654
236	0xbd16b705	-0.036795635
237	0x3e119bcb	0.14219587
238	0x3e238f8a	0.15972725
239	0x3db0058e	0.085948095
240	0xbbbbb0ef	-0.0057278792
241	0xbd6f4f3f	-0.058425184
242	0xbd78fb7a	-0.0607867
243	0xbc8e01a0	-0.01733476
244	0x3b90d304	0.0044196863
245	0x3d459448	0.048237115
246	0x3d376866	0.044777296
247	0x3c8e6647	0.017382754
248	0x3caf876a	0.021426875
249	0xbb0d8333	-0.0021593093
250	0xbce17a3f	-0.027524112
251	0xbd16fa80	-0.03685999
252	0x3c2b6be5	0.010462736
253	0x3d77ad35	0.060467917
254	0x3ced7318	0.028985545
255	0x3d2c88d0	0.042122662

conv3.bias f4 [48]
0	0xbcc14159	-0.02359073
1	0x3be30892	0.006928512
2	0x3c5b291f	0.013376503
3	0x3bbf4228	0.005836744
4	0x3c848254	0.016175427
5	0x3ccd28ac	0.025043808
6	0x3ce6cc89	0.028173702
7	0x3c8deac9	0.017323868
8	0xbc3096c7	-0.010778136
9	0x3c308c51	0.010775642
10	0xbc28dab3	-0.010306048
11	0x3cacd630	0.021098226
12	0xbc99648b	-0.0187247
13	0xbcbd56d5	-0.023112694
14	0x3c79614f	0.015220954
15	0x3b30785a	0.0026927204
16	0x3b6e7468	0.0036385302
17	0xbc5c198f	-0.013433828
18	0x3c8d4c6c	0.017248355
19	0xbc934936	-0.017979246
20	0xbba40b26	-0.005006212
21	0x3c4c5709	0.012471923
22	0x3ccf98ae	0.025341358
23	0xbce6ad5b	-0.028158834
24	0x3ca11aef	0.019666163
25	0x3c6673cf	0.014065697
26	0xbbe05fab	-0.006847342
27	0x3bea1bdf	0.007144436
28	0x3c7962ef	0.0152213415
29	0x3bbe0d31	0.0057999124
30	0xbcbe6a69	-0.0232441
31	0xbc2ad5d7	-0.01042696
32	0x3c796c27	0.015223539
33	0x3a94f101	0.0011363329
34	0xbbabcb66	-0.005242753
35	0x3c4ad991	0.012380973
36	0x3c51b294	0.012798924
37	0x3c1218b3	0.008917022
38	0x3ce6df3b	0.028182616
39	0x3c543ba2	0.012953671
40	0x3cc8ef84	0.024528272
41	0x3c115644	0.008870665
42	0x3c00bff6	0.007858267
43	0xba666f2a	-0.00087903684
44	0xbcb4f4a3	-0.022089308
45	0xbc2b7549	-0.010464975
46	0xbb9554aa	-0.004557212
47	0x3b9032f6	0.0044006063
